model/classifier/classifier.tflite (tflite, 6576 bytes, 6 tensors)

sequential_2/dense_6/BiasAdd/ReadVariableOp/resource f4 [20]
000000 ea d5 2a bf af ef 3a be 96 87 17 bf b8 2d 3b bf
       -0.66732657 -0.18255495 -0.5919126 -0.73116636
000010 a2 44 5f 3f 20 b0 1e be bc 5e 9f bf 4b 10 42 be
       0.872141 -0.15496874 -1.2450786 -0.18951528
000020 a4 ec 1f bf 79 43 18 3c 48 8a 51 bf f0 d2 70 be
       -0.6247046 0.0092934305 -0.81851625 -0.23517966
000030 ea 2c 45 bf 42 09 e7 be a3 38 06 bf fb b1 23 bf
       -0.7702166 -0.4512425 -0.5243017 -0.6394345
000040 dd 19 e4 be 25 05 28 bf 97 a0 21 bf 9f 86 25 bf
       -0.44550982 -0.6563285 -0.63135666 -0.6465854

sequential_2/dense_7/BiasAdd/ReadVariableOp/resource f4 [10]
000000 b7 3f 7c 3f 4b d4 97 3e 9a 52 27 3f df 47 30 3f
       0.9853472 0.29654154 0.65360415 0.68859667
000010 7f 1f b5 3e 56 70 12 3f 5e 8e f8 3e 5b 53 fe bd
       0.35375592 0.5720266 0.48546118 -0.124182425
000020 4b cb 2f 3f be d1 26 3f
       0.68669575 0.6516379

sequential_2/dense_8/BiasAdd/ReadVariableOp/resource f4 [8]
000000 4b 8d 29 bf 5e 7a 6b be 29 06 d8 3d 3e f1 3d be
       -0.6623122 -0.22995898 0.1054805 -0.18549058
000010 02 96 11 3f 4a e8 23 bd e1 60 44 3d 64 39 a9 3e
       0.5686952 -0.04001645 0.047943953 0.33051598

sequential_2/dense_6/MatMul f4 [20, 42]
000000 d3 b0 39 be 60 d2 88 bc 67 91 57 3f 11 0e 00 3c
       -0.1813386 -0.016701877 0.8420624 0.007815854
000010 ea 77 35 3f e0 0a e5 3c 68 e0 4e 3f 53 0a 05 3e
       0.708861 0.027959287 0.80811167 0.1299222
000020 43 f5 32 3f d2 9c 02 3e f4 09 b7 3e 75 ba 41 3c
       0.6990549 0.12755135 0.3574978 0.01182424
000030 ea d2 91 3d 81 98 a0 bd 89 36 81 be 00 c2 87 bb
       0.07120307 -0.07841588 -0.2523692 -0.0041429996
000040 4e 6c c4 be 7f 57 fe bb 64 fd a7 3e ce 53 00 bc
       -0.3836388 -0.007761895 0.3281051 -0.007832481
000050 57 c1 d8 3d fa 3e c6 bc 6a 99 e0 bd e8 8d e3 3d
       0.10583752 -0.024199951 -0.109667614 0.11111051
000060 85 8b 38 bd b2 b7 a4 3d ae 0f 9d 3e b3 24 57 bd
       -0.04505493 0.080428496 0.30676025 -0.052525233
000070 b5 0a 8e 3d d6 df 2f be 50 b8 6f be 14 15 a2 3d
       0.06935636 -0.1717523 -0.23410153 0.079141766
000080 11 f1 5f be 93 72 11 3e 62 f8 85 3e 8e a8 16 be
       -0.21869303 0.14203863 0.26166064 -0.14712736
000090 4f 10 b0 bd 52 dc 89 be 24 75 f4 be 15 25 57 bd
       -0.085968606 -0.26925904 -0.4774562 -0.0525256
0000a0 14 32 5c bf 0d 28 c2 bc 7c 49 5d 3e 5a 86 0a be
       -0.86013913 -0.023700738 0.21610063 -0.13527814
0000b0 fb be 52 bf ef cd 43 3f 33 26 1f bf bc f3 00 3f
       -0.82322663 0.76486105 -0.6216766 0.5037191
0000c0 a8 6e 98 be 63 55 0c 3f e2 7b e3 bd f8 9b c3 3e
       -0.29771924 0.5481779 -0.11107613 0.38204932
0000d0 93 e9 04 bf 63 e2 51 be 8b 90 95 be b2 fd 40 3d
       -0.51918906 -0.20496516 -0.2921184 0.047116943
0000e0 42 ae a9 be ae 8e 89 3e f3 65 c0 be 32 a4 8d 3e
       -0.3314076 0.26866668 -0.3757778 0.27664334
0000f0 b0 60 8e be fb 76 d1 be fb b7 a1 bd b6 bc 0f be
       -0.27808142 -0.40911087 -0.078964196 -0.14036831
000100 1b 9a 8b 3d cb a9 c5 3d b3 49 fc 3d ab 8e a3 3d
       0.06816503 0.09651526 0.123187445 0.07986196
000110 39 f4 4d 3e b6 ba c5 be 16 ae 3a 3e 41 39 f4 bc
       0.20112695 -0.38619012 0.18230471 -0.029812457
000120 0e 22 7a 3e ab 3c 42 3e 00 e8 b3 3e ce 2f 38 3e
       0.24427053 0.18968455 0.3513794 0.17986986
000130 67 cd 11 3f b8 ad 29 bf ce f0 c0 3e 53 27 9e 3d
       0.56954044 -0.662807 0.3768372 0.07722344
000140 ae a8 6c 3e 12 78 8e 3e 5e 9e 7a 3e 1e f4 3e 3e
       0.23111221 0.2782598 0.24474475 0.18647811
000150 50 94 0a 3e 10 ca fe bc 9c ac 3f 3d 0e 4d 52 3f
       0.13533139 -0.03110221 0.046795473 0.82148826
000160 a1 28 51 3d 6e 94 1d 3e 21 8e ca 3d e2 3f 3f 3d
       0.051064137 0.15388653 0.0989039 0.046691783
000170 28 d2 df 3d 9c 25 06 bd 2a ff a3 3c a2 3d e2 3d
       0.10928756 -0.03275071 0.020019133 0.11046912
000180 38 fc 49 3d b9 7d 9c 3d 53 a5 c9 3c 08 3f 92 3d
       0.0493128 0.07641167 0.024614966 0.071409285
000190 d4 bb ad bc 4d 91 8f 3d eb 57 d3 bd db de 9d 3d
       -0.021207727 0.07010136 -0.103195034 0.07708522
0001a0 d9 36 a7 3d a1 0f 28 3d 81 88 b5 bd f0 b5 f1 bf
       0.08164758 0.04103053 -0.08863927 -1.8883648
0001b0 1d 18 9e be ec 01 44 3e 78 30 6b bd 0b 10 9f 3d
       -0.30877772 0.19141358 -0.05741927 0.07766732
0001c0 24 52 a5 3d 89 db 85 3d 56 08 57 3d c5 c6 14 3d
       0.08072308 0.06536014 0.052498184 0.036322374
0001d0 06 bc b2 bc f0 2d 5d bb 45 8f c9 bd 83 03 17 3c
       -0.021818172 -0.0033749305 -0.098417796 0.009217146
0001e0 12 cf 8a 3c 47 62 9b 3d 8f 17 0c bb 3b f5 b2 3d
       0.016944442 0.07587104 -0.0021376347 0.0873818
0001f0 c9 0d 2f bd 55 a1 69 3d 6f 9b 1b be cd 2f 8a be
       -0.042737756 0.057038624 -0.15196012 -0.26989594
000200 90 22 85 3d c3 c1 6a 3e c4 f4 dc 3c 51 7f c0 3d
       0.06500733 0.22925477 0.026972182 0.09399284
000210 11 18 93 bd 2f 90 f9 3c bf 61 96 bf 55 56 fe bc
       -0.07182325 0.03046426 -1.174858 -0.031047026
000220 92 1f 72 3d 8d b1 2d 3c 37 52 83 3c 61 64 05 3d
       0.05911214 0.010601413 0.016030414 0.032566432
000230 0e 15 b7 3d b3 65 6f 3d ae dc f3 3d 37 6d a2 3d
       0.08939563 0.058446597 0.11907326 0.07930987
000240 0c ea 85 3c a8 93 e1 ba 1c b0 43 3c 66 c1 4d bd
       0.016346954 -0.0017210143 0.011943843 -0.050233267
000250 4a fb d0 3d 67 88 c4 3b ca c5 ec 3d 03 77 9a 3d
       0.102041796 0.0059977057 0.11561163 0.07542231
000260 84 27 f6 bc a7 ec 8a bc 5c b3 74 bd 4f 3c 03 be
       -0.03004814 -0.016958548 -0.059741363 -0.12815975
000270 89 db a0 3d 12 e0 4a be e3 0c e7 bc 3c 4e af bf
       0.07854373 -0.19812039 -0.028204387 -1.369575
000280 87 cf c4 bd 55 f4 e7 bc 48 a4 7a 3c d9 0b 21 bd
       -0.09609895 -0.028314749 0.015297957 -0.03931794
000290 98 b1 8b 3d 5a fa 27 3d a3 3e 88 3d f9 49 8e 3d
       0.06820983 0.04101024 0.06652572 0.06947703
0002a0 e2 90 13 3e 70 2b 65 3e e4 01 e4 be e6 07 02 3f
       0.14410737 0.22379851 -0.44532692 0.507933
0002b0 d9 46 3f 3c 78 bf 4f 3f 0d 97 90 3d f3 c6 07 3f
       0.011674606 0.81151533 0.07060061 0.5303795
0002c0 dd 29 f6 3d a7 a9 d4 3d 5c d1 d8 bc e9 ad 40 3e
       0.120197035 0.10383921 -0.026467018 0.18816341
0002d0 e2 b6 f3 bd 71 38 4a 3e b1 a3 04 be 3e 52 83 3e
       -0.119001165 0.19748093 -0.12953068 0.25648683
0002e0 a5 b3 2f be 2a a9 45 3e b3 35 3f 3d 1d 5b a1 bd
       -0.17158373 0.19302812 0.04668207 -0.078787066
0002f0 7f a1 34 be ec 2e 61 3e 79 f0 9e bd 1f f8 be 3e
       -0.17639731 0.21990556 -0.0776071 0.37298676
000300 e7 b7 c9 3c 30 c2 22 3f 44 b7 61 3e 64 a9 bd be
       0.024623824 0.63577557 0.22042567 -0.37043297
000310 3e 69 c8 3c 6d c1 1d 3e ea 7d 10 be 7b 1b dc 3e
       0.024464246 0.15405817 -0.14110532 0.42989716
000320 91 46 8f 3d 97 47 e7 3e e6 cb dc 3e 89 e0 2a be
       0.06995881 0.45171806 0.43124312 -0.16687216
000330 cd 35 59 3e 12 53 18 3e 3e 1c a8 bd a1 d4 5a 3e
       0.2121193 0.14875439 -0.08208512 0.21370174
000340 8b 5e 17 3e c2 e2 80 3e fe 57 4d be f4 cc 6b 3e
       0.14782159 0.25173002 -0.20053098 0.23027402
000350 00 1d 76 3b 07 3c 61 3f 35 ed 52 3d 3e af ce 3e
       0.0037553906 0.8798222 0.05149575 0.40368074
000360 61 16 9d 3b e6 a9 71 3e 0e 4e 67 3c e6 8a ed 3d
       0.0047939275 0.23599967 0.014117731 0.115987584
000370 96 0f 8a 3b e9 01 5d 3e e2 64 5e 3d 8c 09 d1 bd
       0.004213284 0.2158276 0.054295428 -0.10206899
000380 04 43 58 3d 3b d2 ae bf 78 9a c5 3d 6f f3 8a be
       0.052798286 -1.3657907 0.09648603 -0.2713885
000390 da ce 08 bd 2d fc 0a 3e 99 b7 d4 3c 1d 53 e3 3d
       -0.033400394 0.1357276 0.025966452 0.11099837
0003a0 19 1a e6 bc fe 74 93 3d b3 ae 06 bd b1 b0 8a 3d
       -0.028088616 0.07200049 -0.03288145 0.067719825
0003b0 d9 e9 33 bd dc 12 48 3d d3 98 0d 3c be 5f 96 3d
       -0.043924186 0.04884611 0.008642393 0.0734248
0003c0 e0 20 23 bd 95 59 f0 3d 65 c8 45 bd 51 53 aa 3d
       -0.039826274 0.117358364 -0.048286814 0.083166726
0003d0 a3 08 4c bc 2b a0 54 be 54 c5 63 3d cd 67 e0 3b
       -0.012453231 -0.20764224 0.05560811 0.0068483115
0003e0 66 91 75 3c 87 0d 51 3d c3 7a a2 bd 57 61 1e 3c
       0.014988279 0.05103829 -0.07933571 0.009666762
0003f0 d3 5b 49 be c0 07 a3 bb 59 f3 6a be 51 8d 81 3e
       -0.19663934 -0.004975289 -0.22944392 0.25303128

sequential_2/dense_7/MatMul f4 [10, 20]
000000 ba 6b a2 3f d9 16 38 3f d2 c8 69 3f 7d c8 9d 3f
       1.2689126 0.7190986 0.9132205 1.2326809
000010 0e 32 26 be 8f ee 0f 3e 4f 49 c0 3e 31 ae 7f bf
       -0.16230032 0.14055847 0.3755593 -0.9987517
000020 0e ce c5 3d 78 7d 90 bf a7 18 d6 be 06 85 38 3f
       0.096584424 -1.128829 -0.41815683 0.7207798
000030 12 b7 5d bd 98 0c a4 3d 45 c3 00 3f 43 bf 05 3f
       -0.054129668 0.080102146 0.5029796 0.5224497
000040 e2 a8 32 3f 73 2c ab be d2 e6 6e bf bb 98 80 bf
       0.69788945 -0.3343235 -0.93320954 -1.004661
000050 20 91 ec 3e 66 92 a9 be 9e e5 5c 3e b1 07 ab 3e
       0.46204472 -0.33119506 0.21571967 0.33404306
000060 3b 15 85 3d 2d 20 32 3f c4 76 8e 3d a4 14 99 3f
       0.0649819 0.69580346 0.069562465 1.1959424
000070 80 f6 17 3d 53 55 85 3f 15 30 5e 3f 15 16 d0 3e
       0.037100315 1.0416664 0.8679212 0.40641847
000080 5c 01 a0 bc bd 2f 5e be c7 bb f2 3c 25 65 43 3e
       -0.019531898 -0.21697898 0.029630555 0.19081552
000090 de 1b ff 3d 9d 48 08 3f 51 da 85 3f 04 c4 c5 3f
       0.12456487 0.532358 1.045725 1.5450444
0000a0 e7 55 7b 3e aa 7a cb 3e 32 d5 64 be 9d 4a cc 3d
       0.24544488 0.39742023 -0.22346953 0.09975169
0000b0 09 8b 00 be 63 e0 89 3f 62 ba 19 3d ca 2d f9 bd
       -0.12553038 1.0771602 0.037531264 -0.12166937
0000c0 c9 8e ea bd 81 ab 55 bd d7 cb ee 3e f9 ed 5e 3f
       -0.11453015 -0.052165512 0.46639892 0.8708187
0000d0 6e ec 07 bd 66 05 78 3e f3 06 98 be 47 8c a5 be
       -0.03318446 0.2422081 -0.29692802 -0.32333586
0000e0 6b 55 d6 3c 0b 72 de 3f e7 67 08 3f b0 6b 0d be
       0.026163777 1.7378553 0.5328354 -0.13810611
0000f0 c8 2c 6a 3d 9b 30 ad 3d 1d 8b 34 3e 8a 9f b9 bf
       0.057171613 0.084565364 0.17631193 -1.4501812
000100 1c ac 6d 3e 5f 2a 97 3e f7 59 a9 bf d3 e3 fc bd
       0.23210186 0.29524514 -1.323058 -0.123481415
000110 de 97 f6 bf ec bd c1 3e 95 f1 01 3f 7b e9 54 3c
       -1.9265096 0.3784021 0.5075925 0.012995119
000120 e1 c5 d7 bf 31 58 01 bf d1 8a 78 3e 90 0f 29 3e
       -1.6857263 -0.50525194 0.24271704 0.16509843
000130 e7 b4 7f 3d 4d 71 6b 3e 75 8f a2 3c ff bf 27 bf
       0.06242838 0.2299244 0.019843796 -0.6552734
000140 c3 04 7a bc f2 bb 89 3f c0 00 20 3f 2c 0c 33 bd
       -0.015259924 1.0760481 0.62501144 -0.04371278
000150 e1 57 69 3f c2 74 68 3e f2 d5 b9 3e bb 3a b7 3e
       0.9114972 0.2270079 0.3629604 0.35786995
000160 e0 2d 96 bc 8a ba 2f 3e 16 28 8b 3e 20 78 3d 3f
       -0.018332422 0.17161003 0.2717902 0.7401142
000170 01 c7 03 be 32 44 39 bf 5a af bb 3e bd 13 3c 3f
       -0.12868883 -0.7236968 0.3665722 0.7346762
000180 cc fa 57 3e 6d 74 9d 3d bd 69 95 3e 1b 2b 1f 3e
       0.21091765 0.07688222 0.29182234 0.15543787
000190 89 7d 98 3f 89 a7 02 3f 18 cd 5f be 36 73 fd 3c
       1.191331 0.5103689 -0.21855581 0.030938726
0001a0 0c 05 e1 3e b8 ac bb 3e 29 0a d3 3e 47 8b 4a 3e
       0.43949163 0.3665521 0.4121869 0.19779693
0001b0 a7 77 8e 3f 4f 0d 5f be 93 77 00 3f e9 56 10 3f
       1.1130265 -0.2178242 0.50182456 0.56382614
0001c0 bd 1a ab 3f fe 2e d2 3f da a8 d4 be 7c 81 0a bd
       1.3367535 1.6420591 -0.41535074 -0.033814892
0001d0 88 97 8a be 93 f5 82 3c 8c e6 96 3d db a3 a1 3c
       -0.27068734 0.01598624 0.07368192 0.019731453
0001e0 ae 5e d2 bd e6 44 57 3d c9 e5 02 3f 62 a5 a1 3e
       -0.10271965 0.05255594 0.51131874 0.3157149
0001f0 1a e6 98 be 3b 8c 43 3f 0b da 70 3e d9 8c 43 be
       -0.29863054 0.7638585 0.23520677 -0.19096698
000200 cb 90 b0 3e ac 90 dc bf 36 dd 6a bd 3f d9 a7 3e
       0.34485468 -1.723165 -0.05733987 0.32782933
000210 91 ed 63 3e 59 af f5 3e d6 d2 12 3f ac b5 a4 3e
       0.22258593 0.47985342 0.5735296 0.32169855
000220 82 cf 75 3e e1 51 ae 3f dc 12 d4 3d a7 a3 b0 3d
       0.24004939 1.3618737 0.1035516 0.08624964
000230 fa 8e 5b 3e bb 90 16 bd 47 81 b0 3f 35 e9 d2 3e
       0.2144126 -0.03675912 1.3789452 0.41193548
000240 f8 0a 92 3e 89 c2 a2 3d 31 00 97 3f aa a5 bb bd
       0.28523993 0.07947261 1.1796933 -0.09162457
000250 98 0a 41 3f e7 cb 90 3f 3a ab 09 3e 85 1a 22 bd
       0.7540679 1.1312226 0.13444224 -0.039576072
000260 89 c9 94 3f ed f4 4f 3f 42 03 cd 3f e1 cf a5 3f
       1.1624004 0.812331 1.6016619 1.2954065
000270 82 47 36 3f 2e 66 5c 3d 3d 0e 0c 3f cd 6a 26 3f
       0.7120286 0.053808384 0.54709226 0.65006715
000280 e4 00 87 be d0 da 36 bf fc fa d0 bf 4e 71 a8 bf
       -0.26367867 -0.7142763 -1.6326594 -1.3159578
000290 6f 9c db bd df cd 32 bf 51 f9 85 bf 94 19 f2 3e
       -0.10723197 -0.69845384 -1.046671 0.4728514
0002a0 e4 89 1e bf 72 90 14 3f f6 f6 c1 3e 64 ad c4 bf
       -0.61929154 0.58032906 0.3788373 -1.5365415
0002b0 1c d4 db bf d0 55 d5 bf 75 81 ac bf e0 66 c3 bf
       -1.7174106 -1.6666813 -1.3477007 -1.526577
0002c0 d9 99 94 bf 3f b5 c2 be 01 7d eb 3e 1b 53 7f 3e
       -1.160945 -0.38028905 0.45993808 0.24934046
0002d0 2d b9 9a bd db 0e a8 3e 44 0f 8f bf f9 c1 7f bf
       -0.07554851 0.32823834 -1.1176534 -0.99905354
0002e0 b3 50 15 3f 9d df a1 3d f1 cb 97 be 7c 21 c4 3d
       0.5832626 0.07903979 -0.29647782 0.09576699
0002f0 0b b3 81 3e 1a dc 0c 3f dd 75 50 bd 78 b3 91 3e
       0.2533191 0.5502335 -0.050893653 0.28457236
000300 72 01 3c 3e 79 57 f9 bf 7b 65 dc be ef 65 0d bf
       0.18359926 -1.947982 -0.43046173 -0.55233663
000310 71 16 fa bf 15 02 c3 3d 4a 1d 03 bc 86 80 e8 3e
       -1.9538099 0.095218815 -0.0080025885 0.45410556

sequential_2/dense_8/MatMul f4 [8, 10]
000000 59 ea f9 bd 08 96 ad 3e ba 1f c5 be 5d bf 77 bf
       -0.122029014 0.33903527 -0.38500768 -0.9677637
000010 b3 a7 3d bf a8 58 5a bd 16 21 33 3f 49 32 6c 3f
       -0.74084014 -0.053307205 0.6997236 0.9226423
000020 26 11 c6 be e5 45 09 bf 89 50 22 3e 4d 23 50 3f
       -0.38684958 -0.53622276 0.15851034 0.81303865
000030 1d ee 9e bd 6d d8 6a bf 42 9a 4b 3f 7b 99 02 3f
       -0.0776026 -0.9173649 0.79532254 0.5101544
000040 d3 b8 ad bf ae 90 30 3e 5c d4 90 be 8f 9d c3 be
       -1.3572029 0.17242691 -0.28287017 -0.38206145
000050 1c 48 55 be ef 44 c4 3e 0d 87 a8 3e 3b d0 b3 be
       -0.20828289 0.38333842 0.32915536 -0.35119805
000060 ff 5d 25 3f 64 9d ce bd 8e e7 8f be c3 b4 4b bf
       0.6459655 -0.10088614 -0.2810635 -0.79572695
000070 66 a2 a0 3d 3d aa 72 3f ca 9b 52 3e 2a bc 6b 3f
       0.07843475 0.94791013 0.20567241 0.9208399
000080 3d 1f 0d bf c8 b0 b2 3e 4d a3 f3 be 45 13 33 bf
       -0.5512579 0.34900498 -0.47585526 -0.6995128
000090 06 c3 a6 be 4f ba bf be c8 a1 ba 3f d0 79 04 3f
       -0.32570666 -0.3744683 1.4580622 0.5174837
0000a0 43 e7 92 3f bd 37 14 c0 49 ed d5 bf c7 01 68 bf
       1.1476825 -2.315902 -1.6713039 -0.9062771
0000b0 50 d2 b5 be cb 27 bd 3e 45 04 a3 3c 70 ca 20 3f
       -0.35512018 0.36944422 0.019899497 0.62808895
0000c0 cc 13 9c bf 80 f7 91 be a6 6e 3f be 2c f2 38 bd
       -1.2193542 -0.2850914 -0.18694553 -0.045152828
0000d0 bc 59 01 be 39 f2 c2 3f fe 69 2b 3f a0 27 81 bf
       -0.12631887 1.523017 0.66958606 -1.0090218
0000e0 3b ee 52 3e 36 ef 94 3e 40 05 4f bf c3 87 a8 3e
       0.2059869 0.29088753 -0.80867386 0.32916078
0000f0 93 d5 99 bf b9 f4 33 be fc 53 02 3f 46 e7 5a be
       -1.2018303 -0.17573823 0.509094 -0.21377286
000100 27 a1 c7 be 86 fc a7 3f 6c 66 cf be c0 0c 6f be
       -0.38990137 1.3123939 -0.4050783 -0.23344707
000110 c4 60 de bd eb 6d 77 3f da 55 8b 3f a3 af 16 bf
       -0.108583 0.96652097 1.0885575 -0.5886175
000120 3e 04 54 3f 3d 9d b1 3e 2a 7b 10 bf 6b a5 60 3e
       0.82818973 0.34690276 -0.56437933 0.21938102
000130 47 87 af 3e 04 b4 2a c0 01 e4 38 bf ba f2 c5 bf
       0.34282896 -2.6672373 -0.72222906 -1.5464699
